{"class_name": "Functional", "config": {"name": "functional_11", "layers": [{"class_name": "InputLayer", "config": {"batch_input_shape": [null, 256, 256, 3], "dtype": "float32", "sparse": false, "ragged": false, "name": "input_6"}, "name": "input_6", "inbound_nodes": []}, {"class_name": "Conv2D", "config": {"name": "conv2d_190", "trainable": true, "dtype": {"class_name": "Policy", "config": {"name": "mixed_float16"}}, "filters": 32, "kernel_size": [3, 3], "strides": [1, 1], "padding": "same", "data_format": "channels_last", "dilation_rate": [1, 1], "groups": 1, "activation": "linear", "use_bias": true, "kernel_initializer": {"class_name": "GlorotUniform", "config": {"seed": null}}, "bias_initializer": {"class_name": "Zeros", "config": {}}, "kernel_regularizer": null, "bias_regularizer": null, "activity_regularizer": null, "kernel_constraint": null, "bias_constraint": null}, "name": "conv2d_190", "inbound_nodes": [[["input_6", 0, 0, {}]]]}, {"class_name": "BatchNormalization", "config": {"name": "batch_normalization_185", "trainable": true, "dtype": {"class_name": "Policy", "config": {"name": "mixed_float16"}}, "axis": [3], "momentum": 0.99, "epsilon": 0.001, "center": true, "scale": true, "beta_initializer": {"class_name": "Zeros", "config": {}}, "gamma_initializer": {"class_name": "Ones", "config": {}}, "moving_mean_initializer": {"class_name": "Zeros", "config": {}}, "moving_variance_initializer": {"class_name": "Ones", "config": {}}, "beta_regularizer": null, "gamma_regularizer": null, "beta_constraint": null, "gamma_constraint": null}, "name": "batch_normalization_185", "inbound_nodes": [[["conv2d_190", 0, 0, {}]]]}, {"class_name": "LeakyReLU", "config": {"name": "leaky_re_lu_255", "trainable": true, "dtype": {"class_name": "Policy", "config": {"name": "mixed_float16"}}, "alpha": 0.10000000149011612}, "name": "leaky_re_lu_255", "inbound_nodes": [[["batch_normalization_185", 0, 0, {}]]]}, {"class_name": "Conv2D", "config": {"name": "conv2d_191", "trainable": true, "dtype": {"class_name": "Policy", "config": {"name": "mixed_float16"}}, "filters": 64, "kernel_size": [3, 3], "strides": [1, 1], "padding": "same", "data_format": "channels_last", "dilation_rate": [1, 1], "groups": 1, "activation": "linear", "use_bias": true, "kernel_initializer": {"class_name": "GlorotUniform", "config": {"seed": null}}, "bias_initializer": {"class_name": "Zeros", "config": {}}, "kernel_regularizer": null, "bias_regularizer": null, "activity_regularizer": null, "kernel_constraint": null, "bias_constraint": null}, "name": "conv2d_191", "inbound_nodes": [[["leaky_re_lu_255", 0, 0, {}]]]}, {"class_name": "BatchNormalization", "config": {"name": "batch_normalization_186", "trainable": true, "dtype": {"class_name": "Policy", "config": {"name": "mixed_float16"}}, "axis": [3], "momentum": 0.99, "epsilon": 0.001, "center": true, "scale": true, "beta_initializer": {"class_name": "Zeros", "config": {}}, "gamma_initializer": {"class_name": "Ones", "config": {}}, "moving_mean_initializer": {"class_name": "Zeros", "config": {}}, "moving_variance_initializer": {"class_name": "Ones", "config": {}}, "beta_regularizer": null, "gamma_regularizer": null, "beta_constraint": null, "gamma_constraint": null}, "name": "batch_normalization_186", "inbound_nodes": [[["conv2d_191", 0, 0, {}]]]}, {"class_name": "LeakyReLU", "config": {"name": "leaky_re_lu_256", "trainable": true, "dtype": {"class_name": "Policy", "config": {"name": "mixed_float16"}}, "alpha": 0.10000000149011612}, "name": "leaky_re_lu_256", "inbound_nodes": [[["batch_normalization_186", 0, 0, {}]]]}, {"class_name": "Conv2D", "config": {"name": "conv2d_192", "trainable": true, "dtype": {"class_name": "Policy", "config": {"name": "mixed_float16"}}, "filters": 32, "kernel_size": [3, 3], "strides": [1, 1], "padding": "same", "data_format": "channels_last", "dilation_rate": [1, 1], "groups": 1, "activation": "linear", "use_bias": true, "kernel_initializer": {"class_name": "GlorotUniform", "config": {"seed": null}}, "bias_initializer": {"class_name": "Zeros", "config": {}}, "kernel_regularizer": null, "bias_regularizer": null, "activity_regularizer": null, "kernel_constraint": null, "bias_constraint": null}, "name": "conv2d_192", "inbound_nodes": [[["leaky_re_lu_256", 0, 0, {}]]]}, {"class_name": "BatchNormalization", "config": {"name": "batch_normalization_187", "trainable": true, "dtype": {"class_name": "Policy", "config": {"name": "mixed_float16"}}, "axis": [3], "momentum": 0.99, "epsilon": 0.001, "center": true, "scale": true, "beta_initializer": {"class_name": "Zeros", "config": {}}, "gamma_initializer": {"class_name": "Ones", "config": {}}, "moving_mean_initializer": {"class_name": "Zeros", "config": {}}, "moving_variance_initializer": {"class_name": "Ones", "config": {}}, "beta_regularizer": null, "gamma_regularizer": null, "beta_constraint": null, "gamma_constraint": null}, "name": "batch_normalization_187", "inbound_nodes": [[["conv2d_192", 0, 0, {}]]]}, {"class_name": "LeakyReLU", "config": {"name": "leaky_re_lu_257", "trainable": true, "dtype": {"class_name": "Policy", "config": {"name": "mixed_float16"}}, "alpha": 0.10000000149011612}, "name": "leaky_re_lu_257", "inbound_nodes": [[["batch_normalization_187", 0, 0, {}]]]}, {"class_name": "Conv2D", "config": {"name": "conv2d_193", "trainable": true, "dtype": {"class_name": "Policy", "config": {"name": "mixed_float16"}}, "filters": 64, "kernel_size": [3, 3], "strides": [1, 1], "padding": "same", "data_format": "channels_last", "dilation_rate": [1, 1], "groups": 1, "activation": "linear", "use_bias": true, "kernel_initializer": {"class_name": "GlorotUniform", "config": {"seed": null}}, "bias_initializer": {"class_name": "Zeros", "config": {}}, "kernel_regularizer": null, "bias_regularizer": null, "activity_regularizer": null, "kernel_constraint": null, "bias_constraint": null}, "name": "conv2d_193", "inbound_nodes": [[["leaky_re_lu_257", 0, 0, {}]]]}, {"class_name": "BatchNormalization", "config": {"name": "batch_normalization_188", "trainable": true, "dtype": {"class_name": "Policy", "config": {"name": "mixed_float16"}}, "axis": [3], "momentum": 0.99, "epsilon": 0.001, "center": true, "scale": true, "beta_initializer": {"class_name": "Zeros", "config": {}}, "gamma_initializer": {"class_name": "Ones", "config": {}}, "moving_mean_initializer": {"class_name": "Zeros", "config": {}}, "moving_variance_initializer": {"class_name": "Ones", "config": {}}, "beta_regularizer": null, "gamma_regularizer": null, "beta_constraint": null, "gamma_constraint": null}, "name": "batch_normalization_188", "inbound_nodes": [[["conv2d_193", 0, 0, {}]]]}, {"class_name": "LeakyReLU", "config": {"name": "leaky_re_lu_258", "trainable": true, "dtype": {"class_name": "Policy", "config": {"name": "mixed_float16"}}, "alpha": 0.10000000149011612}, "name": "leaky_re_lu_258", "inbound_nodes": [[["batch_normalization_188", 0, 0, {}]]]}, {"class_name": "Add", "config": {"name": "add_70", "trainable": true, "dtype": {"class_name": "Policy", "config": {"name": "mixed_float16"}}}, "name": "add_70", "inbound_nodes": [[["leaky_re_lu_256", 0, 0, {}], ["leaky_re_lu_258", 0, 0, {}]]]}, {"class_name": "LeakyReLU", "config": {"name": "leaky_re_lu_259", "trainable": true, "dtype": {"class_name": "Policy", "config": {"name": "mixed_float16"}}, "alpha": 0.10000000149011612}, "name": "leaky_re_lu_259", "inbound_nodes": [[["add_70", 0, 0, {}]]]}, {"class_name": "Conv2D", "config": {"name": "conv2d_194", "trainable": true, "dtype": {"class_name": "Policy", "config": {"name": "mixed_float16"}}, "filters": 32, "kernel_size": [3, 3], "strides": [1, 1], "padding": "same", "data_format": "channels_last", "dilation_rate": [1, 1], "groups": 1, "activation": "linear", "use_bias": true, "kernel_initializer": {"class_name": "GlorotUniform", "config": {"seed": null}}, "bias_initializer": {"class_name": "Zeros", "config": {}}, "kernel_regularizer": null, "bias_regularizer": null, "activity_regularizer": null, "kernel_constraint": null, "bias_constraint": null}, "name": "conv2d_194", "inbound_nodes": [[["leaky_re_lu_259", 0, 0, {}]]]}, {"class_name": "BatchNormalization", "config": {"name": "batch_normalization_189", "trainable": true, "dtype": {"class_name": "Policy", "config": {"name": "mixed_float16"}}, "axis": [3], "momentum": 0.99, "epsilon": 0.001, "center": true, "scale": true, "beta_initializer": {"class_name": "Zeros", "config": {}}, "gamma_initializer": {"class_name": "Ones", "config": {}}, "moving_mean_initializer": {"class_name": "Zeros", "config": {}}, "moving_variance_initializer": {"class_name": "Ones", "config": {}}, "beta_regularizer": null, "gamma_regularizer": null, "beta_constraint": null, "gamma_constraint": null}, "name": "batch_normalization_189", "inbound_nodes": [[["conv2d_194", 0, 0, {}]]]}, {"class_name": "LeakyReLU", "config": {"name": "leaky_re_lu_260", "trainable": true, "dtype": {"class_name": "Policy", "config": {"name": "mixed_float16"}}, "alpha": 0.10000000149011612}, "name": "leaky_re_lu_260", "inbound_nodes": [[["batch_normalization_189", 0, 0, {}]]]}, {"class_name": "Conv2D", "config": {"name": "conv2d_195", "trainable": true, "dtype": {"class_name": "Policy", "config": {"name": "mixed_float16"}}, "filters": 64, "kernel_size": [3, 3], "strides": [1, 1], "padding": "same", "data_format": "channels_last", "dilation_rate": [1, 1], "groups": 1, "activation": "linear", "use_bias": true, "kernel_initializer": {"class_name": "GlorotUniform", "config": {"seed": null}}, "bias_initializer": {"class_name": "Zeros", "config": {}}, "kernel_regularizer": null, "bias_regularizer": null, "activity_regularizer": null, "kernel_constraint": null, "bias_constraint": null}, "name": "conv2d_195", "inbound_nodes": [[["leaky_re_lu_260", 0, 0, {}]]]}, {"class_name": "BatchNormalization", "config": {"name": "batch_normalization_190", "trainable": true, "dtype": {"class_name": "Policy", "config": {"name": "mixed_float16"}}, "axis": [3], "momentum": 0.99, "epsilon": 0.001, "center": true, "scale": true, "beta_initializer": {"class_name": "Zeros", "config": {}}, "gamma_initializer": {"class_name": "Ones", "config": {}}, "moving_mean_initializer": {"class_name": "Zeros", "config": {}}, "moving_variance_initializer": {"class_name": "Ones", "config": {}}, "beta_regularizer": null, "gamma_regularizer": null, "beta_constraint": null, "gamma_constraint": null}, "name": "batch_normalization_190", "inbound_nodes": [[["conv2d_195", 0, 0, {}]]]}, {"class_name": "LeakyReLU", "config": {"name": "leaky_re_lu_261", "trainable": true, "dtype": {"class_name": "Policy", "config": {"name": "mixed_float16"}}, "alpha": 0.10000000149011612}, "name": "leaky_re_lu_261", "inbound_nodes": [[["batch_normalization_190", 0, 0, {}]]]}, {"class_name": "Add", "config": {"name": "add_71", "trainable": true, "dtype": {"class_name": "Policy", "config": {"name": "mixed_float16"}}}, "name": "add_71", "inbound_nodes": [[["leaky_re_lu_259", 0, 0, {}], ["leaky_re_lu_261", 0, 0, {}]]]}, {"class_name": "LeakyReLU", "config": {"name": "leaky_re_lu_262", "trainable": true, "dtype": {"class_name": "Policy", "config": {"name": "mixed_float16"}}, "alpha": 0.10000000149011612}, "name": "leaky_re_lu_262", "inbound_nodes": [[["add_71", 0, 0, {}]]]}, {"class_name": "Conv2D", "config": {"name": "conv2d_196", "trainable": true, "dtype": {"class_name": "Policy", "config": {"name": "mixed_float16"}}, "filters": 128, "kernel_size": [3, 3], "strides": [1, 1], "padding": "same", "data_format": "channels_last", "dilation_rate": [1, 1], "groups": 1, "activation": "linear", "use_bias": true, "kernel_initializer": {"class_name": "GlorotUniform", "config": {"seed": null}}, "bias_initializer": {"class_name": "Zeros", "config": {}}, "kernel_regularizer": null, "bias_regularizer": null, "activity_regularizer": null, "kernel_constraint": null, "bias_constraint": null}, "name": "conv2d_196", "inbound_nodes": [[["leaky_re_lu_262", 0, 0, {}]]]}, {"class_name": "BatchNormalization", "config": {"name": "batch_normalization_191", "trainable": true, "dtype": {"class_name": "Policy", "config": {"name": "mixed_float16"}}, "axis": [3], "momentum": 0.99, "epsilon": 0.001, "center": true, "scale": true, "beta_initializer": {"class_name": "Zeros", "config": {}}, "gamma_initializer": {"class_name": "Ones", "config": {}}, "moving_mean_initializer": {"class_name": "Zeros", "config": {}}, "moving_variance_initializer": {"class_name": "Ones", "config": {}}, "beta_regularizer": null, "gamma_regularizer": null, "beta_constraint": null, "gamma_constraint": null}, "name": "batch_normalization_191", "inbound_nodes": [[["conv2d_196", 0, 0, {}]]]}, {"class_name": "LeakyReLU", "config": {"name": "leaky_re_lu_263", "trainable": true, "dtype": {"class_name": "Policy", "config": {"name": "mixed_float16"}}, "alpha": 0.10000000149011612}, "name": "leaky_re_lu_263", "inbound_nodes": [[["batch_normalization_191", 0, 0, {}]]]}, {"class_name": "Conv2D", "config": {"name": "conv2d_197", "trainable": true, "dtype": {"class_name": "Policy", "config": {"name": "mixed_float16"}}, "filters": 64, "kernel_size": [3, 3], "strides": [1, 1], "padding": "same", "data_format": "channels_last", "dilation_rate": [1, 1], "groups": 1, "activation": "linear", "use_bias": true, "kernel_initializer": {"class_name": "GlorotUniform", "config": {"seed": null}}, "bias_initializer": {"class_name": "Zeros", "config": {}}, "kernel_regularizer": null, "bias_regularizer": null, "activity_regularizer": null, "kernel_constraint": null, "bias_constraint": null}, "name": "conv2d_197", "inbound_nodes": [[["leaky_re_lu_263", 0, 0, {}]]]}, {"class_name": "BatchNormalization", "config": {"name": "batch_normalization_192", "trainable": true, "dtype": {"class_name": "Policy", "config": {"name": "mixed_float16"}}, "axis": [3], "momentum": 0.99, "epsilon": 0.001, "center": true, "scale": true, "beta_initializer": {"class_name": "Zeros", "config": {}}, "gamma_initializer": {"class_name": "Ones", "config": {}}, "moving_mean_initializer": {"class_name": "Zeros", "config": {}}, "moving_variance_initializer": {"class_name": "Ones", "config": {}}, "beta_regularizer": null, "gamma_regularizer": null, "beta_constraint": null, "gamma_constraint": null}, "name": "batch_normalization_192", "inbound_nodes": [[["conv2d_197", 0, 0, {}]]]}, {"class_name": "LeakyReLU", "config": {"name": "leaky_re_lu_264", "trainable": true, "dtype": {"class_name": "Policy", "config": {"name": "mixed_float16"}}, "alpha": 0.10000000149011612}, "name": "leaky_re_lu_264", "inbound_nodes": [[["batch_normalization_192", 0, 0, {}]]]}, {"class_name": "Conv2D", "config": {"name": "conv2d_198", "trainable": true, "dtype": {"class_name": "Policy", "config": {"name": "mixed_float16"}}, "filters": 128, "kernel_size": [3, 3], "strides": [1, 1], "padding": "same", "data_format": "channels_last", "dilation_rate": [1, 1], "groups": 1, "activation": "linear", "use_bias": true, "kernel_initializer": {"class_name": "GlorotUniform", "config": {"seed": null}}, "bias_initializer": {"class_name": "Zeros", "config": {}}, "kernel_regularizer": null, "bias_regularizer": null, "activity_regularizer": null, "kernel_constraint": null, "bias_constraint": null}, "name": "conv2d_198", "inbound_nodes": [[["leaky_re_lu_264", 0, 0, {}]]]}, {"class_name": "BatchNormalization", "config": {"name": "batch_normalization_193", "trainable": true, "dtype": {"class_name": "Policy", "config": {"name": "mixed_float16"}}, "axis": [3], "momentum": 0.99, "epsilon": 0.001, "center": true, "scale": true, "beta_initializer": {"class_name": "Zeros", "config": {}}, "gamma_initializer": {"class_name": "Ones", "config": {}}, "moving_mean_initializer": {"class_name": "Zeros", "config": {}}, "moving_variance_initializer": {"class_name": "Ones", "config": {}}, "beta_regularizer": null, "gamma_regularizer": null, "beta_constraint": null, "gamma_constraint": null}, "name": "batch_normalization_193", "inbound_nodes": [[["conv2d_198", 0, 0, {}]]]}, {"class_name": "LeakyReLU", "config": {"name": "leaky_re_lu_265", "trainable": true, "dtype": {"class_name": "Policy", "config": {"name": "mixed_float16"}}, "alpha": 0.10000000149011612}, "name": "leaky_re_lu_265", "inbound_nodes": [[["batch_normalization_193", 0, 0, {}]]]}, {"class_name": "Add", "config": {"name": "add_72", "trainable": true, "dtype": {"class_name": "Policy", "config": {"name": "mixed_float16"}}}, "name": "add_72", "inbound_nodes": [[["leaky_re_lu_263", 0, 0, {}], ["leaky_re_lu_265", 0, 0, {}]]]}, {"class_name": "LeakyReLU", "config": {"name": "leaky_re_lu_266", "trainable": true, "dtype": {"class_name": "Policy", "config": {"name": "mixed_float16"}}, "alpha": 0.10000000149011612}, "name": "leaky_re_lu_266", "inbound_nodes": [[["add_72", 0, 0, {}]]]}, {"class_name": "Conv2D", "config": {"name": "conv2d_199", "trainable": true, "dtype": {"class_name": "Policy", "config": {"name": "mixed_float16"}}, "filters": 64, "kernel_size": [3, 3], "strides": [1, 1], "padding": "same", "data_format": "channels_last", "dilation_rate": [1, 1], "groups": 1, "activation": "linear", "use_bias": true, "kernel_initializer": {"class_name": "GlorotUniform", "config": {"seed": null}}, "bias_initializer": {"class_name": "Zeros", "config": {}}, "kernel_regularizer": null, "bias_regularizer": null, "activity_regularizer": null, "kernel_constraint": null, "bias_constraint": null}, "name": "conv2d_199", "inbound_nodes": [[["leaky_re_lu_266", 0, 0, {}]]]}, {"class_name": "BatchNormalization", "config": {"name": "batch_normalization_194", "trainable": true, "dtype": {"class_name": "Policy", "config": {"name": "mixed_float16"}}, "axis": [3], "momentum": 0.99, "epsilon": 0.001, "center": true, "scale": true, "beta_initializer": {"class_name": "Zeros", "config": {}}, "gamma_initializer": {"class_name": "Ones", "config": {}}, "moving_mean_initializer": {"class_name": "Zeros", "config": {}}, "moving_variance_initializer": {"class_name": "Ones", "config": {}}, "beta_regularizer": null, "gamma_regularizer": null, "beta_constraint": null, "gamma_constraint": null}, "name": "batch_normalization_194", "inbound_nodes": [[["conv2d_199", 0, 0, {}]]]}, {"class_name": "LeakyReLU", "config": {"name": "leaky_re_lu_267", "trainable": true, "dtype": {"class_name": "Policy", "config": {"name": "mixed_float16"}}, "alpha": 0.10000000149011612}, "name": "leaky_re_lu_267", "inbound_nodes": [[["batch_normalization_194", 0, 0, {}]]]}, {"class_name": "Conv2D", "config": {"name": "conv2d_200", "trainable": true, "dtype": {"class_name": "Policy", "config": {"name": "mixed_float16"}}, "filters": 128, "kernel_size": [3, 3], "strides": [1, 1], "padding": "same", "data_format": "channels_last", "dilation_rate": [1, 1], "groups": 1, "activation": "linear", "use_bias": true, "kernel_initializer": {"class_name": "GlorotUniform", "config": {"seed": null}}, "bias_initializer": {"class_name": "Zeros", "config": {}}, "kernel_regularizer": null, "bias_regularizer": null, "activity_regularizer": null, "kernel_constraint": null, "bias_constraint": null}, "name": "conv2d_200", "inbound_nodes": [[["leaky_re_lu_267", 0, 0, {}]]]}, {"class_name": "BatchNormalization", "config": {"name": "batch_normalization_195", "trainable": true, "dtype": {"class_name": "Policy", "config": {"name": "mixed_float16"}}, "axis": [3], "momentum": 0.99, "epsilon": 0.001, "center": true, "scale": true, "beta_initializer": {"class_name": "Zeros", "config": {}}, "gamma_initializer": {"class_name": "Ones", "config": {}}, "moving_mean_initializer": {"class_name": "Zeros", "config": {}}, "moving_variance_initializer": {"class_name": "Ones", "config": {}}, "beta_regularizer": null, "gamma_regularizer": null, "beta_constraint": null, "gamma_constraint": null}, "name": "batch_normalization_195", "inbound_nodes": [[["conv2d_200", 0, 0, {}]]]}, {"class_name": "LeakyReLU", "config": {"name": "leaky_re_lu_268", "trainable": true, "dtype": {"class_name": "Policy", "config": {"name": "mixed_float16"}}, "alpha": 0.10000000149011612}, "name": "leaky_re_lu_268", "inbound_nodes": [[["batch_normalization_195", 0, 0, {}]]]}, {"class_name": "Add", "config": {"name": "add_73", "trainable": true, "dtype": {"class_name": "Policy", "config": {"name": "mixed_float16"}}}, "name": "add_73", "inbound_nodes": [[["leaky_re_lu_266", 0, 0, {}], ["leaky_re_lu_268", 0, 0, {}]]]}, {"class_name": "LeakyReLU", "config": {"name": "leaky_re_lu_269", "trainable": true, "dtype": {"class_name": "Policy", "config": {"name": "mixed_float16"}}, "alpha": 0.10000000149011612}, "name": "leaky_re_lu_269", "inbound_nodes": [[["add_73", 0, 0, {}]]]}, {"class_name": "Conv2D", "config": {"name": "conv2d_201", "trainable": true, "dtype": {"class_name": "Policy", "config": {"name": "mixed_float16"}}, "filters": 256, "kernel_size": [3, 3], "strides": [2, 2], "padding": "same", "data_format": "channels_last", "dilation_rate": [1, 1], "groups": 1, "activation": "linear", "use_bias": true, "kernel_initializer": {"class_name": "GlorotUniform", "config": {"seed": null}}, "bias_initializer": {"class_name": "Zeros", "config": {}}, "kernel_regularizer": null, "bias_regularizer": null, "activity_regularizer": null, "kernel_constraint": null, "bias_constraint": null}, "name": "conv2d_201", "inbound_nodes": [[["leaky_re_lu_269", 0, 0, {}]]]}, {"class_name": "BatchNormalization", "config": {"name": "batch_normalization_196", "trainable": true, "dtype": {"class_name": "Policy", "config": {"name": "mixed_float16"}}, "axis": [3], "momentum": 0.99, "epsilon": 0.001, "center": true, "scale": true, "beta_initializer": {"class_name": "Zeros", "config": {}}, "gamma_initializer": {"class_name": "Ones", "config": {}}, "moving_mean_initializer": {"class_name": "Zeros", "config": {}}, "moving_variance_initializer": {"class_name": "Ones", "config": {}}, "beta_regularizer": null, "gamma_regularizer": null, "beta_constraint": null, "gamma_constraint": null}, "name": "batch_normalization_196", "inbound_nodes": [[["conv2d_201", 0, 0, {}]]]}, {"class_name": "LeakyReLU", "config": {"name": "leaky_re_lu_270", "trainable": true, "dtype": {"class_name": "Policy", "config": {"name": "mixed_float16"}}, "alpha": 0.10000000149011612}, "name": "leaky_re_lu_270", "inbound_nodes": [[["batch_normalization_196", 0, 0, {}]]]}, {"class_name": "Conv2D", "config": {"name": "conv2d_202", "trainable": true, "dtype": {"class_name": "Policy", "config": {"name": "mixed_float16"}}, "filters": 128, "kernel_size": [3, 3], "strides": [1, 1], "padding": "same", "data_format": "channels_last", "dilation_rate": [1, 1], "groups": 1, "activation": "linear", "use_bias": true, "kernel_initializer": {"class_name": "GlorotUniform", "config": {"seed": null}}, "bias_initializer": {"class_name": "Zeros", "config": {}}, "kernel_regularizer": null, "bias_regularizer": null, "activity_regularizer": null, "kernel_constraint": null, "bias_constraint": null}, "name": "conv2d_202", "inbound_nodes": [[["leaky_re_lu_270", 0, 0, {}]]]}, {"class_name": "BatchNormalization", "config": {"name": "batch_normalization_197", "trainable": true, "dtype": {"class_name": "Policy", "config": {"name": "mixed_float16"}}, "axis": [3], "momentum": 0.99, "epsilon": 0.001, "center": true, "scale": true, "beta_initializer": {"class_name": "Zeros", "config": {}}, "gamma_initializer": {"class_name": "Ones", "config": {}}, "moving_mean_initializer": {"class_name": "Zeros", "config": {}}, "moving_variance_initializer": {"class_name": "Ones", "config": {}}, "beta_regularizer": null, "gamma_regularizer": null, "beta_constraint": null, "gamma_constraint": null}, "name": "batch_normalization_197", "inbound_nodes": [[["conv2d_202", 0, 0, {}]]]}, {"class_name": "LeakyReLU", "config": {"name": "leaky_re_lu_271", "trainable": true, "dtype": {"class_name": "Policy", "config": {"name": "mixed_float16"}}, "alpha": 0.10000000149011612}, "name": "leaky_re_lu_271", "inbound_nodes": [[["batch_normalization_197", 0, 0, {}]]]}, {"class_name": "Conv2D", "config": {"name": "conv2d_203", "trainable": true, "dtype": {"class_name": "Policy", "config": {"name": "mixed_float16"}}, "filters": 256, "kernel_size": [3, 3], "strides": [1, 1], "padding": "same", "data_format": "channels_last", "dilation_rate": [1, 1], "groups": 1, "activation": "linear", "use_bias": true, "kernel_initializer": {"class_name": "GlorotUniform", "config": {"seed": null}}, "bias_initializer": {"class_name": "Zeros", "config": {}}, "kernel_regularizer": null, "bias_regularizer": null, "activity_regularizer": null, "kernel_constraint": null, "bias_constraint": null}, "name": "conv2d_203", "inbound_nodes": [[["leaky_re_lu_271", 0, 0, {}]]]}, {"class_name": "BatchNormalization", "config": {"name": "batch_normalization_198", "trainable": true, "dtype": {"class_name": "Policy", "config": {"name": "mixed_float16"}}, "axis": [3], "momentum": 0.99, "epsilon": 0.001, "center": true, "scale": true, "beta_initializer": {"class_name": "Zeros", "config": {}}, "gamma_initializer": {"class_name": "Ones", "config": {}}, "moving_mean_initializer": {"class_name": "Zeros", "config": {}}, "moving_variance_initializer": {"class_name": "Ones", "config": {}}, "beta_regularizer": null, "gamma_regularizer": null, "beta_constraint": null, "gamma_constraint": null}, "name": "batch_normalization_198", "inbound_nodes": [[["conv2d_203", 0, 0, {}]]]}, {"class_name": "LeakyReLU", "config": {"name": "leaky_re_lu_272", "trainable": true, "dtype": {"class_name": "Policy", "config": {"name": "mixed_float16"}}, "alpha": 0.10000000149011612}, "name": "leaky_re_lu_272", "inbound_nodes": [[["batch_normalization_198", 0, 0, {}]]]}, {"class_name": "Add", "config": {"name": "add_74", "trainable": true, "dtype": {"class_name": "Policy", "config": {"name": "mixed_float16"}}}, "name": "add_74", "inbound_nodes": [[["leaky_re_lu_270", 0, 0, {}], ["leaky_re_lu_272", 0, 0, {}]]]}, {"class_name": "LeakyReLU", "config": {"name": "leaky_re_lu_273", "trainable": true, "dtype": {"class_name": "Policy", "config": {"name": "mixed_float16"}}, "alpha": 0.10000000149011612}, "name": "leaky_re_lu_273", "inbound_nodes": [[["add_74", 0, 0, {}]]]}, {"class_name": "Conv2D", "config": {"name": "conv2d_204", "trainable": true, "dtype": {"class_name": "Policy", "config": {"name": "mixed_float16"}}, "filters": 128, "kernel_size": [3, 3], "strides": [1, 1], "padding": "same", "data_format": "channels_last", "dilation_rate": [1, 1], "groups": 1, "activation": "linear", "use_bias": true, "kernel_initializer": {"class_name": "GlorotUniform", "config": {"seed": null}}, "bias_initializer": {"class_name": "Zeros", "config": {}}, "kernel_regularizer": null, "bias_regularizer": null, "activity_regularizer": null, "kernel_constraint": null, "bias_constraint": null}, "name": "conv2d_204", "inbound_nodes": [[["leaky_re_lu_273", 0, 0, {}]]]}, {"class_name": "BatchNormalization", "config": {"name": "batch_normalization_199", "trainable": true, "dtype": {"class_name": "Policy", "config": {"name": "mixed_float16"}}, "axis": [3], "momentum": 0.99, "epsilon": 0.001, "center": true, "scale": true, "beta_initializer": {"class_name": "Zeros", "config": {}}, "gamma_initializer": {"class_name": "Ones", "config": {}}, "moving_mean_initializer": {"class_name": "Zeros", "config": {}}, "moving_variance_initializer": {"class_name": "Ones", "config": {}}, "beta_regularizer": null, "gamma_regularizer": null, "beta_constraint": null, "gamma_constraint": null}, "name": "batch_normalization_199", "inbound_nodes": [[["conv2d_204", 0, 0, {}]]]}, {"class_name": "LeakyReLU", "config": {"name": "leaky_re_lu_274", "trainable": true, "dtype": {"class_name": "Policy", "config": {"name": "mixed_float16"}}, "alpha": 0.10000000149011612}, "name": "leaky_re_lu_274", "inbound_nodes": [[["batch_normalization_199", 0, 0, {}]]]}, {"class_name": "Conv2D", "config": {"name": "conv2d_205", "trainable": true, "dtype": {"class_name": "Policy", "config": {"name": "mixed_float16"}}, "filters": 256, "kernel_size": [3, 3], "strides": [1, 1], "padding": "same", "data_format": "channels_last", "dilation_rate": [1, 1], "groups": 1, "activation": "linear", "use_bias": true, "kernel_initializer": {"class_name": "GlorotUniform", "config": {"seed": null}}, "bias_initializer": {"class_name": "Zeros", "config": {}}, "kernel_regularizer": null, "bias_regularizer": null, "activity_regularizer": null, "kernel_constraint": null, "bias_constraint": null}, "name": "conv2d_205", "inbound_nodes": [[["leaky_re_lu_274", 0, 0, {}]]]}, {"class_name": "BatchNormalization", "config": {"name": "batch_normalization_200", "trainable": true, "dtype": {"class_name": "Policy", "config": {"name": "mixed_float16"}}, "axis": [3], "momentum": 0.99, "epsilon": 0.001, "center": true, "scale": true, "beta_initializer": {"class_name": "Zeros", "config": {}}, "gamma_initializer": {"class_name": "Ones", "config": {}}, "moving_mean_initializer": {"class_name": "Zeros", "config": {}}, "moving_variance_initializer": {"class_name": "Ones", "config": {}}, "beta_regularizer": null, "gamma_regularizer": null, "beta_constraint": null, "gamma_constraint": null}, "name": "batch_normalization_200", "inbound_nodes": [[["conv2d_205", 0, 0, {}]]]}, {"class_name": "LeakyReLU", "config": {"name": "leaky_re_lu_275", "trainable": true, "dtype": {"class_name": "Policy", "config": {"name": "mixed_float16"}}, "alpha": 0.10000000149011612}, "name": "leaky_re_lu_275", "inbound_nodes": [[["batch_normalization_200", 0, 0, {}]]]}, {"class_name": "Add", "config": {"name": "add_75", "trainable": true, "dtype": {"class_name": "Policy", "config": {"name": "mixed_float16"}}}, "name": "add_75", "inbound_nodes": [[["leaky_re_lu_273", 0, 0, {}], ["leaky_re_lu_275", 0, 0, {}]]]}, {"class_name": "LeakyReLU", "config": {"name": "leaky_re_lu_276", "trainable": true, "dtype": {"class_name": "Policy", "config": {"name": "mixed_float16"}}, "alpha": 0.10000000149011612}, "name": "leaky_re_lu_276", "inbound_nodes": [[["add_75", 0, 0, {}]]]}, {"class_name": "Conv2D", "config": {"name": "conv2d_206", "trainable": true, "dtype": {"class_name": "Policy", "config": {"name": "mixed_float16"}}, "filters": 512, "kernel_size": [3, 3], "strides": [2, 2], "padding": "same", "data_format": "channels_last", "dilation_rate": [1, 1], "groups": 1, "activation": "linear", "use_bias": true, "kernel_initializer": {"class_name": "GlorotUniform", "config": {"seed": null}}, "bias_initializer": {"class_name": "Zeros", "config": {}}, "kernel_regularizer": null, "bias_regularizer": null, "activity_regularizer": null, "kernel_constraint": null, "bias_constraint": null}, "name": "conv2d_206", "inbound_nodes": [[["leaky_re_lu_276", 0, 0, {}]]]}, {"class_name": "BatchNormalization", "config": {"name": "batch_normalization_201", "trainable": true, "dtype": {"class_name": "Policy", "config": {"name": "mixed_float16"}}, "axis": [3], "momentum": 0.99, "epsilon": 0.001, "center": true, "scale": true, "beta_initializer": {"class_name": "Zeros", "config": {}}, "gamma_initializer": {"class_name": "Ones", "config": {}}, "moving_mean_initializer": {"class_name": "Zeros", "config": {}}, "moving_variance_initializer": {"class_name": "Ones", "config": {}}, "beta_regularizer": null, "gamma_regularizer": null, "beta_constraint": null, "gamma_constraint": null}, "name": "batch_normalization_201", "inbound_nodes": [[["conv2d_206", 0, 0, {}]]]}, {"class_name": "LeakyReLU", "config": {"name": "leaky_re_lu_277", "trainable": true, "dtype": {"class_name": "Policy", "config": {"name": "mixed_float16"}}, "alpha": 0.10000000149011612}, "name": "leaky_re_lu_277", "inbound_nodes": [[["batch_normalization_201", 0, 0, {}]]]}, {"class_name": "Conv2D", "config": {"name": "conv2d_207", "trainable": true, "dtype": {"class_name": "Policy", "config": {"name": "mixed_float16"}}, "filters": 256, "kernel_size": [3, 3], "strides": [1, 1], "padding": "same", "data_format": "channels_last", "dilation_rate": [1, 1], "groups": 1, "activation": "linear", "use_bias": true, "kernel_initializer": {"class_name": "GlorotUniform", "config": {"seed": null}}, "bias_initializer": {"class_name": "Zeros", "config": {}}, "kernel_regularizer": null, "bias_regularizer": null, "activity_regularizer": null, "kernel_constraint": null, "bias_constraint": null}, "name": "conv2d_207", "inbound_nodes": [[["leaky_re_lu_277", 0, 0, {}]]]}, {"class_name": "BatchNormalization", "config": {"name": "batch_normalization_202", "trainable": true, "dtype": {"class_name": "Policy", "config": {"name": "mixed_float16"}}, "axis": [3], "momentum": 0.99, "epsilon": 0.001, "center": true, "scale": true, "beta_initializer": {"class_name": "Zeros", "config": {}}, "gamma_initializer": {"class_name": "Ones", "config": {}}, "moving_mean_initializer": {"class_name": "Zeros", "config": {}}, "moving_variance_initializer": {"class_name": "Ones", "config": {}}, "beta_regularizer": null, "gamma_regularizer": null, "beta_constraint": null, "gamma_constraint": null}, "name": "batch_normalization_202", "inbound_nodes": [[["conv2d_207", 0, 0, {}]]]}, {"class_name": "LeakyReLU", "config": {"name": "leaky_re_lu_278", "trainable": true, "dtype": {"class_name": "Policy", "config": {"name": "mixed_float16"}}, "alpha": 0.10000000149011612}, "name": "leaky_re_lu_278", "inbound_nodes": [[["batch_normalization_202", 0, 0, {}]]]}, {"class_name": "Conv2D", "config": {"name": "conv2d_208", "trainable": true, "dtype": {"class_name": "Policy", "config": {"name": "mixed_float16"}}, "filters": 512, "kernel_size": [3, 3], "strides": [1, 1], "padding": "same", "data_format": "channels_last", "dilation_rate": [1, 1], "groups": 1, "activation": "linear", "use_bias": true, "kernel_initializer": {"class_name": "GlorotUniform", "config": {"seed": null}}, "bias_initializer": {"class_name": "Zeros", "config": {}}, "kernel_regularizer": null, "bias_regularizer": null, "activity_regularizer": null, "kernel_constraint": null, "bias_constraint": null}, "name": "conv2d_208", "inbound_nodes": [[["leaky_re_lu_278", 0, 0, {}]]]}, {"class_name": "BatchNormalization", "config": {"name": "batch_normalization_203", "trainable": true, "dtype": {"class_name": "Policy", "config": {"name": "mixed_float16"}}, "axis": [3], "momentum": 0.99, "epsilon": 0.001, "center": true, "scale": true, "beta_initializer": {"class_name": "Zeros", "config": {}}, "gamma_initializer": {"class_name": "Ones", "config": {}}, "moving_mean_initializer": {"class_name": "Zeros", "config": {}}, "moving_variance_initializer": {"class_name": "Ones", "config": {}}, "beta_regularizer": null, "gamma_regularizer": null, "beta_constraint": null, "gamma_constraint": null}, "name": "batch_normalization_203", "inbound_nodes": [[["conv2d_208", 0, 0, {}]]]}, {"class_name": "LeakyReLU", "config": {"name": "leaky_re_lu_279", "trainable": true, "dtype": {"class_name": "Policy", "config": {"name": "mixed_float16"}}, "alpha": 0.10000000149011612}, "name": "leaky_re_lu_279", "inbound_nodes": [[["batch_normalization_203", 0, 0, {}]]]}, {"class_name": "Add", "config": {"name": "add_76", "trainable": true, "dtype": {"class_name": "Policy", "config": {"name": "mixed_float16"}}}, "name": "add_76", "inbound_nodes": [[["leaky_re_lu_277", 0, 0, {}], ["leaky_re_lu_279", 0, 0, {}]]]}, {"class_name": "LeakyReLU", "config": {"name": "leaky_re_lu_280", "trainable": true, "dtype": {"class_name": "Policy", "config": {"name": "mixed_float16"}}, "alpha": 0.10000000149011612}, "name": "leaky_re_lu_280", "inbound_nodes": [[["add_76", 0, 0, {}]]]}, {"class_name": "Conv2D", "config": {"name": "conv2d_209", "trainable": true, "dtype": {"class_name": "Policy", "config": {"name": "mixed_float16"}}, "filters": 256, "kernel_size": [3, 3], "strides": [1, 1], "padding": "same", "data_format": "channels_last", "dilation_rate": [1, 1], "groups": 1, "activation": "linear", "use_bias": true, "kernel_initializer": {"class_name": "GlorotUniform", "config": {"seed": null}}, "bias_initializer": {"class_name": "Zeros", "config": {}}, "kernel_regularizer": null, "bias_regularizer": null, "activity_regularizer": null, "kernel_constraint": null, "bias_constraint": null}, "name": "conv2d_209", "inbound_nodes": [[["leaky_re_lu_280", 0, 0, {}]]]}, {"class_name": "BatchNormalization", "config": {"name": "batch_normalization_204", "trainable": true, "dtype": {"class_name": "Policy", "config": {"name": "mixed_float16"}}, "axis": [3], "momentum": 0.99, "epsilon": 0.001, "center": true, "scale": true, "beta_initializer": {"class_name": "Zeros", "config": {}}, "gamma_initializer": {"class_name": "Ones", "config": {}}, "moving_mean_initializer": {"class_name": "Zeros", "config": {}}, "moving_variance_initializer": {"class_name": "Ones", "config": {}}, "beta_regularizer": null, "gamma_regularizer": null, "beta_constraint": null, "gamma_constraint": null}, "name": "batch_normalization_204", "inbound_nodes": [[["conv2d_209", 0, 0, {}]]]}, {"class_name": "LeakyReLU", "config": {"name": "leaky_re_lu_281", "trainable": true, "dtype": {"class_name": "Policy", "config": {"name": "mixed_float16"}}, "alpha": 0.10000000149011612}, "name": "leaky_re_lu_281", "inbound_nodes": [[["batch_normalization_204", 0, 0, {}]]]}, {"class_name": "Conv2D", "config": {"name": "conv2d_210", "trainable": true, "dtype": {"class_name": "Policy", "config": {"name": "mixed_float16"}}, "filters": 512, "kernel_size": [3, 3], "strides": [1, 1], "padding": "same", "data_format": "channels_last", "dilation_rate": [1, 1], "groups": 1, "activation": "linear", "use_bias": true, "kernel_initializer": {"class_name": "GlorotUniform", "config": {"seed": null}}, "bias_initializer": {"class_name": "Zeros", "config": {}}, "kernel_regularizer": null, "bias_regularizer": null, "activity_regularizer": null, "kernel_constraint": null, "bias_constraint": null}, "name": "conv2d_210", "inbound_nodes": [[["leaky_re_lu_281", 0, 0, {}]]]}, {"class_name": "BatchNormalization", "config": {"name": "batch_normalization_205", "trainable": true, "dtype": {"class_name": "Policy", "config": {"name": "mixed_float16"}}, "axis": [3], "momentum": 0.99, "epsilon": 0.001, "center": true, "scale": true, "beta_initializer": {"class_name": "Zeros", "config": {}}, "gamma_initializer": {"class_name": "Ones", "config": {}}, "moving_mean_initializer": {"class_name": "Zeros", "config": {}}, "moving_variance_initializer": {"class_name": "Ones", "config": {}}, "beta_regularizer": null, "gamma_regularizer": null, "beta_constraint": null, "gamma_constraint": null}, "name": "batch_normalization_205", "inbound_nodes": [[["conv2d_210", 0, 0, {}]]]}, {"class_name": "LeakyReLU", "config": {"name": "leaky_re_lu_282", "trainable": true, "dtype": {"class_name": "Policy", "config": {"name": "mixed_float16"}}, "alpha": 0.10000000149011612}, "name": "leaky_re_lu_282", "inbound_nodes": [[["batch_normalization_205", 0, 0, {}]]]}, {"class_name": "Add", "config": {"name": "add_77", "trainable": true, "dtype": {"class_name": "Policy", "config": {"name": "mixed_float16"}}}, "name": "add_77", "inbound_nodes": [[["leaky_re_lu_280", 0, 0, {}], ["leaky_re_lu_282", 0, 0, {}]]]}, {"class_name": "LeakyReLU", "config": {"name": "leaky_re_lu_283", "trainable": true, "dtype": {"class_name": "Policy", "config": {"name": "mixed_float16"}}, "alpha": 0.10000000149011612}, "name": "leaky_re_lu_283", "inbound_nodes": [[["add_77", 0, 0, {}]]]}, {"class_name": "Conv2D", "config": {"name": "conv2d_211", "trainable": true, "dtype": {"class_name": "Policy", "config": {"name": "mixed_float16"}}, "filters": 1024, "kernel_size": [3, 3], "strides": [2, 2], "padding": "same", "data_format": "channels_last", "dilation_rate": [1, 1], "groups": 1, "activation": "linear", "use_bias": true, "kernel_initializer": {"class_name": "GlorotUniform", "config": {"seed": null}}, "bias_initializer": {"class_name": "Zeros", "config": {}}, "kernel_regularizer": null, "bias_regularizer": null, "activity_regularizer": null, "kernel_constraint": null, "bias_constraint": null}, "name": "conv2d_211", "inbound_nodes": [[["leaky_re_lu_283", 0, 0, {}]]]}, {"class_name": "BatchNormalization", "config": {"name": "batch_normalization_206", "trainable": true, "dtype": {"class_name": "Policy", "config": {"name": "mixed_float16"}}, "axis": [3], "momentum": 0.99, "epsilon": 0.001, "center": true, "scale": true, "beta_initializer": {"class_name": "Zeros", "config": {}}, "gamma_initializer": {"class_name": "Ones", "config": {}}, "moving_mean_initializer": {"class_name": "Zeros", "config": {}}, "moving_variance_initializer": {"class_name": "Ones", "config": {}}, "beta_regularizer": null, "gamma_regularizer": null, "beta_constraint": null, "gamma_constraint": null}, "name": "batch_normalization_206", "inbound_nodes": [[["conv2d_211", 0, 0, {}]]]}, {"class_name": "LeakyReLU", "config": {"name": "leaky_re_lu_284", "trainable": true, "dtype": {"class_name": "Policy", "config": {"name": "mixed_float16"}}, "alpha": 0.10000000149011612}, "name": "leaky_re_lu_284", "inbound_nodes": [[["batch_normalization_206", 0, 0, {}]]]}, {"class_name": "Conv2D", "config": {"name": "conv2d_212", "trainable": true, "dtype": {"class_name": "Policy", "config": {"name": "mixed_float16"}}, "filters": 512, "kernel_size": [3, 3], "strides": [1, 1], "padding": "same", "data_format": "channels_last", "dilation_rate": [1, 1], "groups": 1, "activation": "linear", "use_bias": true, "kernel_initializer": {"class_name": "GlorotUniform", "config": {"seed": null}}, "bias_initializer": {"class_name": "Zeros", "config": {}}, "kernel_regularizer": null, "bias_regularizer": null, "activity_regularizer": null, "kernel_constraint": null, "bias_constraint": null}, "name": "conv2d_212", "inbound_nodes": [[["leaky_re_lu_284", 0, 0, {}]]]}, {"class_name": "BatchNormalization", "config": {"name": "batch_normalization_207", "trainable": true, "dtype": {"class_name": "Policy", "config": {"name": "mixed_float16"}}, "axis": [3], "momentum": 0.99, "epsilon": 0.001, "center": true, "scale": true, "beta_initializer": {"class_name": "Zeros", "config": {}}, "gamma_initializer": {"class_name": "Ones", "config": {}}, "moving_mean_initializer": {"class_name": "Zeros", "config": {}}, "moving_variance_initializer": {"class_name": "Ones", "config": {}}, "beta_regularizer": null, "gamma_regularizer": null, "beta_constraint": null, "gamma_constraint": null}, "name": "batch_normalization_207", "inbound_nodes": [[["conv2d_212", 0, 0, {}]]]}, {"class_name": "LeakyReLU", "config": {"name": "leaky_re_lu_285", "trainable": true, "dtype": {"class_name": "Policy", "config": {"name": "mixed_float16"}}, "alpha": 0.10000000149011612}, "name": "leaky_re_lu_285", "inbound_nodes": [[["batch_normalization_207", 0, 0, {}]]]}, {"class_name": "Conv2D", "config": {"name": "conv2d_213", "trainable": true, "dtype": {"class_name": "Policy", "config": {"name": "mixed_float16"}}, "filters": 1024, "kernel_size": [3, 3], "strides": [1, 1], "padding": "same", "data_format": "channels_last", "dilation_rate": [1, 1], "groups": 1, "activation": "linear", "use_bias": true, "kernel_initializer": {"class_name": "GlorotUniform", "config": {"seed": null}}, "bias_initializer": {"class_name": "Zeros", "config": {}}, "kernel_regularizer": null, "bias_regularizer": null, "activity_regularizer": null, "kernel_constraint": null, "bias_constraint": null}, "name": "conv2d_213", "inbound_nodes": [[["leaky_re_lu_285", 0, 0, {}]]]}, {"class_name": "BatchNormalization", "config": {"name": "batch_normalization_208", "trainable": true, "dtype": {"class_name": "Policy", "config": {"name": "mixed_float16"}}, "axis": [3], "momentum": 0.99, "epsilon": 0.001, "center": true, "scale": true, "beta_initializer": {"class_name": "Zeros", "config": {}}, "gamma_initializer": {"class_name": "Ones", "config": {}}, "moving_mean_initializer": {"class_name": "Zeros", "config": {}}, "moving_variance_initializer": {"class_name": "Ones", "config": {}}, "beta_regularizer": null, "gamma_regularizer": null, "beta_constraint": null, "gamma_constraint": null}, "name": "batch_normalization_208", "inbound_nodes": [[["conv2d_213", 0, 0, {}]]]}, {"class_name": "LeakyReLU", "config": {"name": "leaky_re_lu_286", "trainable": true, "dtype": {"class_name": "Policy", "config": {"name": "mixed_float16"}}, "alpha": 0.10000000149011612}, "name": "leaky_re_lu_286", "inbound_nodes": [[["batch_normalization_208", 0, 0, {}]]]}, {"class_name": "Add", "config": {"name": "add_78", "trainable": true, "dtype": {"class_name": "Policy", "config": {"name": "mixed_float16"}}}, "name": "add_78", "inbound_nodes": [[["leaky_re_lu_284", 0, 0, {}], ["leaky_re_lu_286", 0, 0, {}]]]}, {"class_name": "LeakyReLU", "config": {"name": "leaky_re_lu_287", "trainable": true, "dtype": {"class_name": "Policy", "config": {"name": "mixed_float16"}}, "alpha": 0.10000000149011612}, "name": "leaky_re_lu_287", "inbound_nodes": [[["add_78", 0, 0, {}]]]}, {"class_name": "Conv2D", "config": {"name": "conv2d_214", "trainable": true, "dtype": {"class_name": "Policy", "config": {"name": "mixed_float16"}}, "filters": 512, "kernel_size": [3, 3], "strides": [1, 1], "padding": "same", "data_format": "channels_last", "dilation_rate": [1, 1], "groups": 1, "activation": "linear", "use_bias": true, "kernel_initializer": {"class_name": "GlorotUniform", "config": {"seed": null}}, "bias_initializer": {"class_name": "Zeros", "config": {}}, "kernel_regularizer": null, "bias_regularizer": null, "activity_regularizer": null, "kernel_constraint": null, "bias_constraint": null}, "name": "conv2d_214", "inbound_nodes": [[["leaky_re_lu_287", 0, 0, {}]]]}, {"class_name": "BatchNormalization", "config": {"name": "batch_normalization_209", "trainable": true, "dtype": {"class_name": "Policy", "config": {"name": "mixed_float16"}}, "axis": [3], "momentum": 0.99, "epsilon": 0.001, "center": true, "scale": true, "beta_initializer": {"class_name": "Zeros", "config": {}}, "gamma_initializer": {"class_name": "Ones", "config": {}}, "moving_mean_initializer": {"class_name": "Zeros", "config": {}}, "moving_variance_initializer": {"class_name": "Ones", "config": {}}, "beta_regularizer": null, "gamma_regularizer": null, "beta_constraint": null, "gamma_constraint": null}, "name": "batch_normalization_209", "inbound_nodes": [[["conv2d_214", 0, 0, {}]]]}, {"class_name": "LeakyReLU", "config": {"name": "leaky_re_lu_288", "trainable": true, "dtype": {"class_name": "Policy", "config": {"name": "mixed_float16"}}, "alpha": 0.10000000149011612}, "name": "leaky_re_lu_288", "inbound_nodes": [[["batch_normalization_209", 0, 0, {}]]]}, {"class_name": "Conv2D", "config": {"name": "conv2d_215", "trainable": true, "dtype": {"class_name": "Policy", "config": {"name": "mixed_float16"}}, "filters": 1024, "kernel_size": [3, 3], "strides": [1, 1], "padding": "same", "data_format": "channels_last", "dilation_rate": [1, 1], "groups": 1, "activation": "linear", "use_bias": true, "kernel_initializer": {"class_name": "GlorotUniform", "config": {"seed": null}}, "bias_initializer": {"class_name": "Zeros", "config": {}}, "kernel_regularizer": null, "bias_regularizer": null, "activity_regularizer": null, "kernel_constraint": null, "bias_constraint": null}, "name": "conv2d_215", "inbound_nodes": [[["leaky_re_lu_288", 0, 0, {}]]]}, {"class_name": "BatchNormalization", "config": {"name": "batch_normalization_210", "trainable": true, "dtype": {"class_name": "Policy", "config": {"name": "mixed_float16"}}, "axis": [3], "momentum": 0.99, "epsilon": 0.001, "center": true, "scale": true, "beta_initializer": {"class_name": "Zeros", "config": {}}, "gamma_initializer": {"class_name": "Ones", "config": {}}, "moving_mean_initializer": {"class_name": "Zeros", "config": {}}, "moving_variance_initializer": {"class_name": "Ones", "config": {}}, "beta_regularizer": null, "gamma_regularizer": null, "beta_constraint": null, "gamma_constraint": null}, "name": "batch_normalization_210", "inbound_nodes": [[["conv2d_215", 0, 0, {}]]]}, {"class_name": "LeakyReLU", "config": {"name": "leaky_re_lu_289", "trainable": true, "dtype": {"class_name": "Policy", "config": {"name": "mixed_float16"}}, "alpha": 0.10000000149011612}, "name": "leaky_re_lu_289", "inbound_nodes": [[["batch_normalization_210", 0, 0, {}]]]}, {"class_name": "Add", "config": {"name": "add_79", "trainable": true, "dtype": {"class_name": "Policy", "config": {"name": "mixed_float16"}}}, "name": "add_79", "inbound_nodes": [[["leaky_re_lu_287", 0, 0, {}], ["leaky_re_lu_289", 0, 0, {}]]]}, {"class_name": "LeakyReLU", "config": {"name": "leaky_re_lu_290", "trainable": true, "dtype": {"class_name": "Policy", "config": {"name": "mixed_float16"}}, "alpha": 0.10000000149011612}, "name": "leaky_re_lu_290", "inbound_nodes": [[["add_79", 0, 0, {}]]]}, {"class_name": "Conv2D", "config": {"name": "conv2d_216", "trainable": true, "dtype": {"class_name": "Policy", "config": {"name": "mixed_float16"}}, "filters": 512, "kernel_size": [3, 3], "strides": [1, 1], "padding": "same", "data_format": "channels_last", "dilation_rate": [1, 1], "groups": 1, "activation": "linear", "use_bias": true, "kernel_initializer": {"class_name": "GlorotUniform", "config": {"seed": null}}, "bias_initializer": {"class_name": "Zeros", "config": {}}, "kernel_regularizer": null, "bias_regularizer": null, "activity_regularizer": null, "kernel_constraint": null, "bias_constraint": null}, "name": "conv2d_216", "inbound_nodes": [[["leaky_re_lu_290", 0, 0, {}]]]}, {"class_name": "BatchNormalization", "config": {"name": "batch_normalization_211", "trainable": true, "dtype": {"class_name": "Policy", "config": {"name": "mixed_float16"}}, "axis": [3], "momentum": 0.99, "epsilon": 0.001, "center": true, "scale": true, "beta_initializer": {"class_name": "Zeros", "config": {}}, "gamma_initializer": {"class_name": "Ones", "config": {}}, "moving_mean_initializer": {"class_name": "Zeros", "config": {}}, "moving_variance_initializer": {"class_name": "Ones", "config": {}}, "beta_regularizer": null, "gamma_regularizer": null, "beta_constraint": null, "gamma_constraint": null}, "name": "batch_normalization_211", "inbound_nodes": [[["conv2d_216", 0, 0, {}]]]}, {"class_name": "LeakyReLU", "config": {"name": "leaky_re_lu_291", "trainable": true, "dtype": {"class_name": "Policy", "config": {"name": "mixed_float16"}}, "alpha": 0.10000000149011612}, "name": "leaky_re_lu_291", "inbound_nodes": [[["batch_normalization_211", 0, 0, {}]]]}, {"class_name": "Conv2D", "config": {"name": "conv2d_217", "trainable": true, "dtype": {"class_name": "Policy", "config": {"name": "mixed_float16"}}, "filters": 256, "kernel_size": [3, 3], "strides": [1, 1], "padding": "same", "data_format": "channels_last", "dilation_rate": [1, 1], "groups": 1, "activation": "linear", "use_bias": true, "kernel_initializer": {"class_name": "GlorotUniform", "config": {"seed": null}}, "bias_initializer": {"class_name": "Zeros", "config": {}}, "kernel_regularizer": null, "bias_regularizer": null, "activity_regularizer": null, "kernel_constraint": null, "bias_constraint": null}, "name": "conv2d_217", "inbound_nodes": [[["leaky_re_lu_291", 0, 0, {}]]]}, {"class_name": "BatchNormalization", "config": {"name": "batch_normalization_212", "trainable": true, "dtype": {"class_name": "Policy", "config": {"name": "mixed_float16"}}, "axis": [3], "momentum": 0.99, "epsilon": 0.001, "center": true, "scale": true, "beta_initializer": {"class_name": "Zeros", "config": {}}, "gamma_initializer": {"class_name": "Ones", "config": {}}, "moving_mean_initializer": {"class_name": "Zeros", "config": {}}, "moving_variance_initializer": {"class_name": "Ones", "config": {}}, "beta_regularizer": null, "gamma_regularizer": null, "beta_constraint": null, "gamma_constraint": null}, "name": "batch_normalization_212", "inbound_nodes": [[["conv2d_217", 0, 0, {}]]]}, {"class_name": "LeakyReLU", "config": {"name": "leaky_re_lu_292", "trainable": true, "dtype": {"class_name": "Policy", "config": {"name": "mixed_float16"}}, "alpha": 0.10000000149011612}, "name": "leaky_re_lu_292", "inbound_nodes": [[["batch_normalization_212", 0, 0, {}]]]}, {"class_name": "Conv2D", "config": {"name": "conv2d_218", "trainable": true, "dtype": {"class_name": "Policy", "config": {"name": "mixed_float16"}}, "filters": 128, "kernel_size": [3, 3], "strides": [1, 1], "padding": "same", "data_format": "channels_last", "dilation_rate": [1, 1], "groups": 1, "activation": "linear", "use_bias": true, "kernel_initializer": {"class_name": "GlorotUniform", "config": {"seed": null}}, "bias_initializer": {"class_name": "Zeros", "config": {}}, "kernel_regularizer": null, "bias_regularizer": null, "activity_regularizer": null, "kernel_constraint": null, "bias_constraint": null}, "name": "conv2d_218", "inbound_nodes": [[["leaky_re_lu_292", 0, 0, {}]]]}, {"class_name": "BatchNormalization", "config": {"name": "batch_normalization_213", "trainable": true, "dtype": {"class_name": "Policy", "config": {"name": "mixed_float16"}}, "axis": [3], "momentum": 0.99, "epsilon": 0.001, "center": true, "scale": true, "beta_initializer": {"class_name": "Zeros", "config": {}}, "gamma_initializer": {"class_name": "Ones", "config": {}}, "moving_mean_initializer": {"class_name": "Zeros", "config": {}}, "moving_variance_initializer": {"class_name": "Ones", "config": {}}, "beta_regularizer": null, "gamma_regularizer": null, "beta_constraint": null, "gamma_constraint": null}, "name": "batch_normalization_213", "inbound_nodes": [[["conv2d_218", 0, 0, {}]]]}, {"class_name": "LeakyReLU", "config": {"name": "leaky_re_lu_293", "trainable": true, "dtype": {"class_name": "Policy", "config": {"name": "mixed_float16"}}, "alpha": 0.10000000149011612}, "name": "leaky_re_lu_293", "inbound_nodes": [[["batch_normalization_213", 0, 0, {}]]]}, {"class_name": "Conv2D", "config": {"name": "conv2d_219", "trainable": true, "dtype": "float32", "filters": 10, "kernel_size": [1, 1], "strides": [1, 1], "padding": "valid", "data_format": "channels_last", "dilation_rate": [1, 1], "groups": 1, "activation": "sigmoid", "use_bias": true, "kernel_initializer": {"class_name": "GlorotUniform", "config": {"seed": null}}, "bias_initializer": {"class_name": "Zeros", "config": {}}, "kernel_regularizer": null, "bias_regularizer": null, "activity_regularizer": null, "kernel_constraint": null, "bias_constraint": null}, "name": "conv2d_219", "inbound_nodes": [[["leaky_re_lu_293", 0, 0, {}]]]}], "input_layers": [["input_6", 0, 0]], "output_layers": [["conv2d_219", 0, 0]]}, "keras_version": "2.4.0", "backend": "tensorflow"}